…
': 100, 'batch_size': 8, 'num_workers': 2, 'sequence_length': 32, 'lr': 0.001, 'training_data_config': 'configs/data/medium-corpus.yaml', 'validation_data_config': 'configs/data/medium-corpus.yaml'}
Default initialization
Configuring ...  moe-basic-1m-64-emb-1L
====================================================================================================
Layer (type:depth-idx)                             Output Shape              Param #
====================================================================================================
LanguageModel                                      [1, 32, 8192]             --
├─Embedding: 1-1                                   [1, 32, 64]               524,288
├─MoETransformer: 1-2                              [1, 32, 64]               --
│    └─ModuleList: 2-1                             --                        --
│    │    └─MoEDecoder: 3-1                        [1, 32, 64]               116,872
│    │    └─MoEDecoder: 3-2                        [1, 32, 64]               116,872
│    │    └─MoEDecoder: 3-3                        [1, 32, 64]               116,872
│    │    └─MoEDecoder: 3-4                        [1, 32, 64]               116,872
│    │    └─MoEDecoder: 3-5                        [1, 32, 64]               116,872
│    │    └─MoEDecoder: 3-6                        [1, 32, 64]               116,872
│    │    └─MoEDecoder: 3-7                        [1, 32, 64]               116,872
│    │    └─MoEDecoder: 3-8                        [1, 32, 64]               116,872
│    └─RMSNorm: 2-2                                [1, 32, 64]               64
│    └─Linear: 2-3                                 [1, 32, 64]               4,096
├─Linear: 1-3                                      [1, 32, 8192]             524,288
====================================================================================================
Total params: 1,987,712
Trainable params: 1,987,712
Non-trainable params: 0
Total mult-adds (M): 7.71
====================================================================================================
Input size (MB): 0.00
Forward/backward pass size (MB): 3.74
Params size (MB): 5.55
Estimated Total Size (MB): 9.29
…
